data.pth (torch, 6231 bytes, 6 tensors)

l1.weight f4 [8, 73]
0	0x3ec4fad0	0.38472605
1	0x3d01f2a9	0.03172556
2	0x3f016809	0.5054937
3	0xbdab9557	-0.08378094
4	0x3eba6251	0.36403134
5	0x3f823643	1.0172809
6	0x3f533eb5	0.8251756
7	0x3f173239	0.5906101
8	0x3ec7bb1d	0.39009944
9	0xbdfd44fd	-0.12366674
10	0x3ebad8fc	0.3649367
11	0x3f7e0f28	0.99241877
12	0x3eb95d57	0.36204025
13	0x3e922469	0.28543404
14	0xbe9c9e2b	-0.30589423
15	0x3f55fae3	0.8358595
16	0x3f90b5a3	1.1305431
17	0xbf7f4003	-0.9970705
18	0x3f9f2edc	1.2436175
19	0xbf846099	-1.0341979
20	0xbee89ee6	-0.4543373
21	0xbf03efca	-0.51537764
22	0xbed6b950	-0.41938257
23	0xbe30fe64	-0.17284542
24	0x3c4eebf9	0.012629502
25	0x3f0be0ab	0.5463969
26	0x3f01cb9e	0.5070132
27	0xbf8ff0dc	-1.124538
28	0x3f06f6a4	0.52720094
29	0xbef4ec21	-0.47836402
30	0x3f26aace	0.6510438
31	0xbdf3cdcc	-0.11904487
32	0x3f14f992	0.58193314
33	0xbe520130	-0.20508265
34	0xbf7f3be5	-0.99700767
35	0xbf16e8b7	-0.58948845
36	0x3f2ffe97	0.6874785
37	0xbe9ad5ca	-0.30241233
38	0xbef68428	-0.48147702
39	0xbe633cd9	-0.2219118
40	0xbe6ace65	-0.22930296
41	0x3eb97b06	0.36226672
42	0x3f2fc66a	0.6866213
43	0x3f68a17c	0.90871406
44	0xbf18a931	-0.59633166
45	0x3ea3262b	0.31865057
46	0xbfa5edac	-1.2963157
47	0xbdb708e7	-0.08937245
48	0x3d9bcfd9	0.07608003
49	0xbf217987	-0.6307606
50	0x3d81d8b1	0.06340159
51	0xbd22fd30	-0.03979224
52	0x3f281bad	0.6566723
53	0x3f03c926	0.51478803
54	0xbed2e2c6	-0.4118864
55	0x3f774b71	0.9659949
56	0xbde0537f	-0.109534256
57	0x3f83a4d9	1.0284683
58	0x3f863103	1.0483707
59	0xbf3611bc	-0.7112081
60	0x3f93acc3	1.1537098
61	0xbe18dcaa	-0.14927927
62	0x3f842688	1.0324259
63	0x3f8f04a7	1.1173295
64	0xbd5eefca	-0.0544279
65	0xbf4516d3	-0.7698795
66	0xbeb72746	-0.3577215
67	0x3eefbd92	0.46824318
68	0x3f2b91a2	0.67019093
69	0x3f61d4d0	0.8821535
70	0x3e92ff9f	0.28710648
71	0x3f375ec7	0.71628994
72	0xbeb25a9c	-0.34834754
73	0x3f1bcc9d	0.6085909
74	0x3f468852	0.7755176
75	0xbeca410d	-0.39502755
76	0xbec18517	-0.37796852
77	0x3e5dbb06	0.21653375
78	0xbe6729e1	-0.2257457
79	0xbf6915b3	-0.91048735
80	0x3e5e66b3	0.21718864
81	0x3e747278	0.23871791
82	0xbd3e31aa	-0.046434082
83	0x3e022f6b	0.12713401
84	0xbda1e5c7	-0.07905155
85	0xbddd314b	-0.108004175
86	0xbdb68ee7	-0.08913975
87	0x3da8c122	0.08239962
88	0x3e8c2cac	0.27377832
89	0xbe95f9f3	-0.2929226
90	0xbf26d7ea	-0.6517321
91	0xbf1f5998	-0.62246084
92	0x3eef18a9	0.46698502
93	0x3ebe7db1	0.3720527
94	0x3ec65c85	0.38742462
95	0x3eedd133	0.4644867
96	0x3f39254d	0.7232254
97	0xbe34ec8e	-0.17668363
98	0x3e17b5ed	0.14815493
99	0xbdcea5da	-0.100902274
100	0x3ea92c11	0.33041432
101	0xbd7e19bb	-0.062036257
102	0x3ea9e49d	0.3318223
103	0xbf0cb8c7	-0.5496945
104	0x3f176b20	0.59147835
105	0xbf7bd640	-0.98373795
106	0x3f1fdc5d	0.6244562
107	0xbf26d051	-0.65161616
108	0xbe570f02	-0.21001819
109	0x3e23e3c3	0.16004853
110	0x3f5eca1e	0.87027156
111	0x3efcb594	0.49357283
112	0x3f56e226	0.83938825
113	0x3f4d3d78	0.8017192
114	0x3f60606a	0.87647116
115	0x3de44e5f	0.111477606
116	0xbd8e03ac	-0.06934294
117	0xbe9647e6	-0.2935173
118	0x3d2c3f6f	0.042052682
119	0xbf1f3222	-0.6218587
120	0x3f748379	0.9551311
121	0x3caad4b6	0.020853382
122	0xbec0adc1	-0.37632564
123	0x3eb4694d	0.35236588
124	0x3e77dd55	0.24205525
125	0x3f2c72a0	0.67362404
126	0xbe630fbb	-0.2217397
127	0x3dde46b7	0.108533315
128	0x3f26dcd5	0.6518071
129	0xbe09feed	-0.13476153
130	0xbf277966	-0.65419614
131	0x3daec7a5	0.08534173
132	0xbedb5846	-0.42840785
133	0xbe47fa7c	-0.19529146
134	0x3f013824	0.5047629
135	0xbf6777af	-0.90417
136	0xbe673531	-0.22578885
137	0x3ea85d1c	0.32883537
138	0x3f73ecf2	0.95283425
139	0x3f003c24	0.5009177
140	0xbef8a2e1	-0.48561767
141	0x3f16d380	0.58916473
142	0xbf0d2754	-0.55138135
143	0x3e93bfd8	0.28857303
144	0x3ebf8145	0.37403312
145	0x3f075810	0.5286875
146	0x3de5cd22	0.112207666
147	0xbbd61a98	-0.006533932
148	0x3f33c1ff	0.7021789
149	0x3f25d0da	0.6477181
150	0x3f128bd7	0.5724463
151	0x3e844fd9	0.2584217
152	0x3f6228f5	0.88343745
153	0xbea5272d	-0.3225645
154	0x3eff1051	0.49817136
155	0x3f106bb6	0.56414354
156	0x3f8e573b	1.1120371
157	0x3ec713c1	0.3888226
158	0xbdffa515	-0.12482659
159	0xbe12ef88	-0.14349186
160	0x3f2c0ec5	0.67210037
161	0x3e85e22a	0.26149112
162	0x3e175dc7	0.14781867
163	0xbdbe0a47	-0.09279304
164	0x3f247588	0.6424184
165	0xbeae3c36	-0.34030312
166	0xbece4255	-0.40284982
167	0xbe8705f9	-0.26371744
168	0xbed10e91	-0.40831426
169	0x3ec66aa6	0.3875324
170	0x3ec9ccab	0.39413962
171	0x3ecc7cb6	0.39938897
172	0x3efda3df	0.49539086
173	0x3f585ae1	0.8451367
174	0x3f18ac43	0.5963785
175	0xbe919093	-0.28430614
176	0x3f43d14e	0.7649125
177	0xbe807fb0	-0.25097418
178	0x3fa897b5	1.3171297
179	0x3eb8a5ba	0.3606394
180	0xbdb58e0f	-0.08864986
181	0x3f011bb9	0.50432926
182	0x3e686405	0.22694404
183	0x3f045ecc	0.5170715
184	0xbef8f840	-0.486269
185	0x3ee6da1d	0.45088282
186	0x3ed62e48	0.41832185
187	0xbf15f4c1	-0.5857659
188	0xbecfbf23	-0.40575513
189	0xbebb9047	-0.36633512
190	0x3f0fd86e	0.5618962
191	0x3f194b58	0.5988059
192	0x3fa4d1bc	1.2876506
193	0xbf257835	-0.64636546
194	0x3ed55e72	0.4167362
195	0xbb1c1f93	-0.002382253
196	0xbdb3f1ca	-0.08786352
197	0x3dd3bba7	0.10338526
198	0x3c4597b0	0.012060091
199	0xbed16211	-0.4089513
200	0x3f630fdf	0.8869609
201	0xbf16d687	-0.5892109
202	0x3f0b9ac7	0.54533046
203	0xbf18df25	-0.5971549
204	0xbedf6384	-0.43630612
205	0xbd93e1cf	-0.07220804
206	0x3f049e76	0.5180429
207	0xbe9fefa6	-0.31237525
208	0xbf4f2bd6	-0.80926263
209	0x3f17e1a9	0.59328705
210	0x3f156e66	0.5837158
211	0xbf5631ed	-0.8366993
212	0xbee4ff72	-0.4472614
213	0x3f1d9ffb	0.61572236
214	0xbf6eb781	-0.93248755
215	0x3f84d797	1.0378293
216	0x3e934df3	0.28770408
217	0x3e08ddc1	0.13365842
218	0xbe7bb957	-0.2458242
219	0x3f042b03	0.5162813
220	0xbeda2e9d	-0.42613688
221	0xbe6f40b4	-0.23364526
222	0x3f4447fe	0.7667235
223	0x3ed4cfe7	0.41564867
224	0xbf255076	-0.645759
225	0x3f7a7afb	0.97843903
226	0xbe9be3f8	-0.30447364
227	0x3ed7c65f	0.42143533
228	0x3f16c214	0.5888989
229	0x3ec8abb1	0.3919349
230	0xbeec8501	-0.46195224
231	0x3e9bf07b	0.3045691
232	0x3dd4c0d1	0.10388339
233	0x3edb3731	0.42815545
234	0x3d7d9de7	0.061918166
235	0xbf6ca530	-0.92439556
236	0x3f555338	0.83330107
237	0xbee02e47	-0.43785307
238	0x3f2728e0	0.65296745
239	0x3e8c4ed7	0.274039
240	0x3e67e387	0.22645389
241	0x3ef928dc	0.48663986
242	0x3eb99e4d	0.36253586
243	0x3f1c1cc0	0.6098137
244	0xbc51a077	-0.012794605
245	0x3f12b602	0.5730897
246	0x3fa91ab3	1.3211273
247	0x3eecf0a8	0.46277356
248	0x3ead5966	0.33857268
249	0xbec654b3	-0.38736495
250	0xbf2446df	-0.6417064
251	0x3f8bfdf6	1.0936878
252	0x3ea82d71	0.3284717
253	0x3f526eae	0.82200134
254	0x3f80a812	1.0051291
255	0x3d082547	0.033238675

l1.bias f4 [8]
0	0x3f7f536b	0.9973666
1	0x3f26dc3f	0.6517982
2	0x3f55e49d	0.8355196
3	0x3f984849	1.189706
4	0x3f1da946	0.61586416
5	0x3f64dc58	0.8939872
6	0x3f618b97	0.8810362
7	0x3f4ed5d9	0.80795056

l2.weight f4 [8, 8]
0	0x3d4c6a34	0.04990597
1	0xbf8ffe1e	-1.1249425
2	0x3fd8950b	1.6920484
3	0x3f8681de	1.0508382
4	0x3fa23258	1.2671614
5	0x3dacd196	0.08438413
6	0xbff24b64	-1.8929257
7	0x3f74d892	0.9564296
8	0x3e5d44ba	0.21608248
9	0xbe60802e	-0.21923897
10	0xbe9956f4	-0.29949152
11	0xbd781ba8	-0.06057325
12	0xbd8c9d58	-0.068659484
13	0x3da849a8	0.08217174
14	0xbe306891	-0.17227389
15	0x3d86cee4	0.0658243
16	0x3c80e7ab	0.015735468
17	0x3e185176	0.14874825
18	0xbe1a0936	-0.15042576
19	0xbe9c1c0d	-0.3049015
20	0xbe7c1b8d	-0.24619885
21	0x3ca704f3	0.020388102
22	0xbdfd8a01	-0.12379838
23	0x3e1cca18	0.15311468
24	0x4012e1e3	2.295037
25	0xbf955ce7	-1.1668977
26	0x3d944ac7	0.07240825
27	0xbd883a43	-0.066517375
28	0x3ee84a1c	0.4536904
29	0xbf1319a4	-0.57461
30	0xbd453859	-0.04814944
31	0xbe2296d0	-0.15877843
32	0x3fbf4d53	1.4945472
33	0x3f254f80	0.6457443
34	0x3f44cef1	0.7687827
35	0xbfb57def	-1.4179057
36	0x3feb408f	1.8379077
37	0xbee5797f	-0.44819257
38	0xbcfc565e	-0.030802902
39	0x3f3dbc67	0.74115604
40	0x3e492724	0.19643837
41	0xbe84658d	-0.25858727
42	0x3f45eae5	0.77311546
43	0x3febca59	1.8421127
44	0x3da93e5d	0.08263848
45	0xbff55937	-1.9167851
46	0x3fd3746c	1.6519904
47	0xbedd0d94	-0.43174422
48	0x3e50da15	0.20395692
49	0x3ff74d3a	1.9320443
50	0xbfa760c6	-1.3076408
51	0x3f086615	0.53280765
52	0x3f8228fb	1.0168756
53	0x400ddf2f	2.216747
54	0x3fad7895	1.3552424
55	0x3f9726e1	1.180874
56	0x3ea1d390	0.31606722
57	0x3ec8c008	0.39209008
58	0x3fd7cbe8	1.6859102
59	0x3fa2c9ec	1.2717872
60	0xbff20104	-1.890656
61	0x3ea6e1f6	0.3259427
62	0x3f2f9a58	0.68594885
63	0xbfc383d7	-1.5274609

l2.bias f4 [8]
0	0x3f0eb29e	0.557413
1	0xbe5a7464	-0.21333462
2	0xbe9b21c7	-0.30299208
3	0x3f1c306a	0.61011374
4	0xbe8836fa	-0.26604444
5	0x3ec950f4	0.39319575
6	0x3f0635af	0.52425665
7	0x3f58edcf	0.8473787

l3.weight f4 [15, 8]
0	0x3f48d98b	0.78456944
1	0x3e376262	0.17908624
2	0xbe4379ab	-0.19089381
3	0x3eb67a7a	0.35640317
4	0xbf851631	-1.0397397
5	0x3e7bb692	0.24581364
6	0xbfef4e55	-1.869578
7	0x3d88c029	0.06677277
8	0xbfe1f8bb	-1.7654032
9	0x3e8fd70d	0.28093758
10	0xbe25bd17	-0.16185413
11	0x3eaa19fc	0.3322295
12	0xbe8b6d49	-0.27231815
13	0x3dd98fee	0.106231555
14	0x3e0936de	0.13399836
15	0xbf643d30	-0.89155865
16	0xbe4dbbbc	-0.20091146
17	0x3dee442c	0.116340965
18	0xbe3a736b	-0.18208091
19	0x3f0b8f51	0.5451556
20	0x3f027589	0.50960594
21	0xbdc8f9ad	-0.09813247
22	0xbf39c268	-0.72562265
23	0xc038ca2c	-2.8873396
24	0x3efb75b7	0.49113247
25	0x3e0650ce	0.13116762
26	0xbe80b91f	-0.25141236
27	0x3d1ff423	0.039051186
28	0xbd751ecf	-0.059843834
29	0x3e1a4a27	0.1506735
30	0xbf4bc364	-0.7959502
31	0xbf74aeb2	-0.95579064
32	0x3d84b466	0.06479721
33	0x3e825c21	0.25460914
34	0x3de77f80	0.113036156
35	0xbaf594aa	-0.0018736322
36	0x3e4344fc	0.19069284
37	0xbfef9757	-1.871806
38	0x3e254bb0	0.16142154
39	0xbf8c2c3e	-1.0951002
40	0xbf1afe4e	-0.6054429
41	0xbe4092d8	-0.18806016
42	0xbe9d28a4	-0.3069507
43	0xbff0c276	-1.8809345
44	0xbf0bdc86	-0.5463337
45	0x3efa5d82	0.48899466
46	0x3ece0c78	0.40243888
47	0xbfe8f648	-1.8200159
48	0xbf16483e	-0.5870398
49	0x3d1163f8	0.03549573
50	0x3d2cc688	0.04218152
51	0xbfc6486c	-1.5490851
52	0xbfa50f2f	-1.2895259
53	0x3f49c06d	0.78809243
54	0xbf49ab71	-0.78777224
55	0x3ef3cd6b	0.4761766
56	0xc002a526	-2.0413299
57	0xbe78596a	-0.24252859
58	0xbd9272b0	-0.07150781
59	0xbfaac42c	-1.3341117
60	0x3f1b37b3	0.60631865
61	0xbf994869	-1.1975223
62	0x3ee9f9ac	0.45698297
63	0xbfde5a56	-1.7371318
64	0x3f6514c3	0.89484805
65	0x3aad5a00	0.0013225675
66	0xbde93d80	-0.11388683
67	0xbfb2a2f6	-1.3955982
68	0xbf5de5e5	-0.86678916
69	0xbfa13739	-1.2594978
70	0x3ebe02c4	0.37111485
71	0xbfda1403	-1.7037357
72	0xbfc39ea2	-1.5282786
73	0x3e78c362	0.24293283
74	0xbdd06ace	-0.101766214
75	0xbfb366ec	-1.4015784
76	0xbfd3d789	-1.6550151
77	0xbec93042	-0.3929463
78	0x3da7b13a	0.081881
79	0x3f845221	1.0337564
80	0x3eeb0639	0.45903185
81	0x3eaf5751	0.34246305
82	0xbe7aed42	-0.24504569
83	0xbfabc389	-1.3419048
84	0xbfde2e71	-1.7357923
85	0x3ec5bf65	0.38622585
86	0xc009d8f2	-2.1538663
87	0x3f5eb9d4	0.870023
88	0xbf89d359	-1.0767623
89	0xbd502cd0	-0.050823987
90	0xbc3cee40	-0.011531413
91	0x3f844115	1.0332361
92	0xc00a7617	-2.1634576
93	0x3ee49431	0.4464431
94	0xbf035327	-0.51298755
95	0x3d6befb0	0.05760163
96	0xbe6c84fb	-0.23097603
97	0xbdf814e8	-0.121133626
98	0x3e1eda4a	0.15512958
99	0x3f4c54f7	0.79817146
100	0xbe4e9a73	-0.20176105
101	0xbf33e993	-0.7027828
102	0xbfa42e2f	-1.2826594
103	0x3e956b37	0.2918336
104	0x3f372a8a	0.71549284
105	0xbe39cd4b	-0.1814472
106	0x3e9c7333	0.3055664
107	0x3ee0c190	0.43897676
108	0x3f033f23	0.51268214
109	0xbfd774ec	-1.6832557
110	0xbf7a6228	-0.97806025
111	0xbfe9341f	-1.8219031
112	0xbfc9ad4a	-1.5756009
113	0xbe915694	-0.28386366
114	0xbe501111	-0.2031901
115	0xbfa87525	-1.316075
116	0xbfb84b67	-1.4398011
117	0xbfb93d4c	-1.4471831
118	0x3f7c570c	0.98570323
119	0xbf37e35d	-0.71831304

l3.bias f4 [15]
0	0xbe01e841	-0.12686254
1	0xbd5e6c50	-0.054302514
2	0x3e8e7f12	0.27831322
3	0xbe93c521	-0.28861335
4	0xbe4fe0f2	-0.20300654
5	0xbdd493e6	-0.10379772
6	0xbeb686aa	-0.35649616
7	0xbd796342	-0.060885675
8	0x3e49d281	0.19709207
9	0x3f1da300	0.61576843
10	0x3ea766e9	0.32695702
11	0xbeb455a4	-0.3522159
12	0xbb3f01ca	-0.0029145353
13	0xbf0fc574	-0.56160665
14	0x3ec8a6d3	0.39189777
